data.pth (torch, 4991 bytes, 6 tensors)

l1.weight f4 [8, 53]
0.13277864 0.5815583 0.54072165 0.8606551 -0.46394673 -0.43148664 0.11928086 0.17060326
-0.28665164 0.38926408 0.22374247 0.21912757 0.28390968 0.17756215 -0.1385841 0.12820636
0.44473913 -0.4247062 0.48672915 0.3150072 -0.4250162 -0.42522267 0.0064875884 0.42568114
0.1765028 0.5216604 0.22213952 0.34589386 0.22365838 0.29034817 0.2493203 0.42129508
0.3932544 0.26757115 -0.10666182 -0.43101594 -0.081002116 0.9269893 0.15202728 0.23469308
0.3170346 0.15957816 0.54816836 0.44928384 0.68946856 -0.25089735 0.44304863 -0.41680998
0.3747951 -0.109650515 0.10207521 -0.22364861 -0.47551847 0.47825506 -0.17620207 0.4983803
0.5593951 0.09874419 0.53014714 -0.58918834 0.12518921 0.23672684 0.76020175 -0.027307278
0.433103 -0.29101744 -0.2484057 0.35212892 -0.49011424 0.49026877 0.49159136 -0.08383164
-0.27810863 0.5048405 0.4840555 0.9811079 0.63609856 0.24498299 0.2592941 -0.3092491
-0.04013607 -0.1372243 0.43524116 0.23606476 0.0040849657 0.42222452 0.2004013 0.0045571197
0.19380696 -0.17387933 0.9760487 -0.13217951 0.23890194 -0.22586156 0.32891402 0.17807731
0.14553617 0.38413522 0.020455576 0.444923 0.1834138 0.43267438 -0.5421599 0.11249463
-0.37586355 -0.5126598 0.91279393 0.023759356 0.21168958 1.2188915 -0.14801499 0.2979464
-0.32450292 -0.24322377 0.35391885 -0.847162 -0.23451746 -0.21644567 -0.29100028 -0.033979416
0.50119734 -0.3290488 0.0052153384 0.76886153 0.33560318 -0.24011122 0.6574003 0.6461172
0.7081078 -0.036920596 0.03173783 0.12317695 -0.10855962 -0.046000585 -0.010300772 0.39034382
-0.1484566 -0.21637872 -0.022799434 -0.014964181 -0.42208645 0.410777 -0.43668124 -0.8104477
-0.065015964 0.21862447 -0.047972396 0.0037582067 -0.13697995 0.7160824 0.5452402 -0.060153548
0.17664026 0.5497125 -0.3024364 -0.834658 -0.110332124 -0.12432271 -0.51880926 0.7703603
-0.19989096 0.11557864 -0.549917 0.30775043 0.45004138 1.0925478 -0.089662924 0.48860633
-0.54916704 -0.06674363 -0.021447739 0.24024075 -0.19636877 0.38484377 1.2400279 -0.09398577
0.5354202 0.42753363 0.14771491 0.5129097 0.5737495 0.21359779 -0.2412405 -0.073492825
-0.24546161 -0.5853429 -0.36228502 0.6899727 0.44191945 -0.06491656 -0.18834989 -0.17133373
0.0026076287 0.14911042 0.29712284 0.22185 0.58012134 0.5333501 0.060199127 -0.24193987
-0.040897544 -0.25483218 0.67580986 0.46725565 0.34204996 0.0013375168 0.4751699 -0.09328757
0.04982268 0.10733093 0.3335285 0.7858836 0.4453478 -0.13233855 0.11828012 1.1549722
-0.0074274214 0.37083152 -0.45513391 -0.039901532 0.39725283 1.005461 0.03378843 -0.06582629
-0.20813583 -0.050833866 0.34367013 -0.45545042 0.12020709 0.6809487 -0.4025565 -0.35161597
0.66813475 0.7051856 0.7155629 0.0359029 0.09149687 -0.03399196 0.011026896 0.017890682
-0.2746066 -0.34070107 -0.08181905 0.09823433 -0.12447471 0.094667904 -0.2883426 0.4291637
-0.23934296 -0.6802673 -0.08206405 0.2606727 -0.15871488 -0.05160938 0.008988909 -0.29143903
00000000: 20f7 073e 01e1 143f bc6c 0a3f e553 5c3f
00000010: 6d8a edbe d1eb dcbe 8649 f43d 9fb2 2e3e
00000020: 01c4 92be 9f4d c73e bf1c 653e fa62 603e
00000030: 9c5c 913e dad2 353e fee8 0dbe 8748 033e
00000040: d9b4 e33e 1773 d9be 9034 f93e a048 a13e
00000050: b99b d9be c9b6 d9be d695 d43b e1f2 d93e
00000060: 26bd 343e 898b 053f 8b78 633e 0019 b13e
00000070: b406 653e 84a8 943e d24d 7f3e fdb3 d73e
00000080: a458 c93e 16ff 883e 8371 dabd 1fae dcbe
00000090: 70e4 a5bd 2c4f 6d3f 0aad 1b3e 6253 703e
000000a0: 5c52 a23e 7568 233e c354 0c3f 8808 e63e
000000b0: 0381 303f 9e75 80be 45d7 e23e 1e68 d5be
000000c0: 25e5 bf3e 7390 e0bd cf0c d13d 2404 65be
000000d0: 2877 f3be d9dd f43e 516e 34be b42b ff3e
000000e0: 8434 0f3f 653a ca3d b9b7 073f 0cd5 16bf
000000f0: 9a31 003e 8568 723e 959c 423f 83b3 dfbc
00000100: adbf dd3e 3d00 95be 105e 7ebe 3e4a b43e
00000110: 41f0 fabe 8204 fb3e ddb1 fb3e ecaf abbd
00000120: 4164 8ebe 3a3d 013f 1fd6 f73e e329 7b3f
00000130: 5bd7 223f d2dc 7a3e 32c2 843e e655 9ebe
00000140: b865 24bd 8784 0cbe eed7 de3e f6ba 713e
00000150: 2ddb 853b d02d d83e 0036 4d3e e453 953b
00000160: 5575 463e 6c0d 32be 54de 793f 115a 07be
00000170: b6a2 743e 4148 67be 6b67 a83e e659 363e
00000180: 6f07 153e 5fad c43e 7492 a73c f3cc e33e
00000190: d4d0 3b3e 7f87 dd3e feca 0abf 9663 e63d
000001a0: 3071 c0be ac3d 03bf ddac 693f fba2 c23c
000001b0: 27c5 583e a304 9c3f 3e91 17be 6e8c 983e
000001c0: 3f25 a6be a70f 79be da34 b53e 9cdf 58bf
000001d0: 5825 70be efa3 5dbe fdfd 94be 002e 0bbd
000001e0: 784e 003f 1679 a8be 6ee5 aa3b 1cd4 443f
000001f0: 2ed4 ab3e b7df 75be 634b 283f f067 253f
00000200: 8e46 353f 0d3a 17bd 87ff 013d 3244 fc3d
00000210: 8254 debd 1c6b 3cbd 92c4 28bc 25db c73e
00000220: 0205 18be 6292 5dbe e1c5 babc 532c 75bc
00000230: b71b d8be 5d51 d23e af94 dfbe 8079 4fbf
00000240: 1727 85bd 18df 5f3e b47e 44bd 3f4c 763b
00000250: 7944 0cbe 2d51 373f dd94 0b3f 9163 76bd
00000260: 2fe1 343e f5b9 0c3f f2d8 9abe 26ac 55bf
00000270: cff5 e1bd e89c febd afd0 04bf 5536 453f
00000280: 37b0 4cbe 7eb4 ec3d 5cc7 0cbf 7791 9d3e
00000290: d36b e63e 9bd8 8b3f 32a1 b7bd 9c2a fa3e
000002a0: 3696 0cbf e2b0 88bd 2bb3 afbc ac01 763e
000002b0: e514 49be 3e0a c53e 3cb9 9e3f 9d7b c0bd
000002c0: 4c11 093f b0e5 da3e 9442 173e 0d4e 033f
000002d0: 3fe1 123f 61b9 5a3e c007 77be 6883 96bd
000002e0: 4a5a 7bbe 08d9 15bf 6c7d b9be 0da2 303f
000002f0: 4443 e23e f9f2 84bd cbde 40be 1c72 2fbe
00000300: c0e4 2a3b 67b0 183e 7c20 983e a52c 633e
00000310: d582 143f a289 083f 5c93 763d 16bf 77be
00000320: 2f84 27bd 5d79 82be e001 2d3f 223c ef3e
00000330: 2c21 af3e 9e4f af3a 7849 f33e 8e0d bfbd
00000340: de12 4c3d 52d0 db3d 3fc4 aa3e ab2f 493f
00000350: a004 e43e c283 07be d93c f23d 21d6 933f
00000360: ba61 f3bb a1dd bd3e 5007 e9be ca6f 23bd
00000370: b964 cb3e f2b2 803f bd65 0a3d efcf 86bd
00000380: 8f21 55be 2c37 50bd 88f5 af3e cc30 e9be
00000390: 232f f63d a752 2e3f e31b cebe 0207 b4be
000003a0: e10a 2b3f 0b87 343f 212f 373f eb0e 133d
000003b0: b662 bb3d 273b 0bbd 27aa 343c 7b8f 923c
000003c0: 3c99 8cbe 5f70 aebe bf90 a7bd 152f c93d
000003d0: 99ec febd 3fe1 c13d a4a1 93be 58bb db3e
000003e0: 5216 75be ff25 2ebf 3211 a8bd e476 853e
000003f0: 2786 22be 5b64 53bd 3846 133c 7f37 95be

l1.bias f4 [8]
0.42164177 0.5851606 0.65874594 0.88155156 0.45335412 0.5318784 0.6117809 0.6637487
00000000: 6ee1 d73e 16cd 153f 93a3 283f 5dad 613f
00000010: 081e e83e 2f29 083f ac9d 1c3f 6feb 293f

l2.weight f4 [8, 8]
0.30060822 0.43303078 0.57830966 0.5903932 -0.33752644 -0.20475797 -0.81740326 1.5149211
-0.27216396 0.008248706 1.5678538 0.8835185 1.0419996 -0.09467519 -0.51996 0.3856387
-0.15064569 -0.16489498 0.11727539 0.063399106 0.09713164 -0.025132924 -0.15624797 -0.108174145
1.1547254 1.0439992 0.15213889 -0.68222165 0.59971154 -0.5971836 0.09495143 0.5391082
0.40749165 -0.711315 -0.40759206 0.55404556 -1.0731035 0.2634525 1.0275356 1.2935876
-0.4198768 0.9607339 -0.08975727 0.48586154 1.0467857 1.3650293 1.1672664 -0.9097635
0.4409026 0.5565262 -0.3535707 1.2538108 -1.2536136 0.7902564 -0.54517055 0.3808107
0.86971164 0.6522757 0.49081367 -0.16894248 -0.20817976 0.20718509 -0.8389925 0.12645373
00000000: 52e9 993e 36b6 dd3e 1a0c 143f 0224 173f
00000010: 44d0 acbe 13ac 51be 5741 51bf efe8 c13f
00000020: 1359 8bbe 9525 073c 6faf c83f 452e 623f
00000030: 3e60 853f 11e5 c1bd 191c 05bf 7072 c53e
00000040: dd42 1abe 3bda 28be 142e f03d 64d7 813d
00000050: f4ec c63d 90e3 cdbc 78ff 1fbe 688a ddbd
00000060: 0bce 933f c4a1 853f 4cca 1b3e 14a6 2ebf
00000070: b286 193f 06e1 18bf e575 c23d ff02 0a3f
00000080: bfa2 d03e bd18 36bf e8af d0be eed5 0d3f
00000090: 755b 89bf 3fe3 863e 4986 833f 4794 a53f
000000a0: 18fa d6be a8f2 753f a9d2 b7bd d8c2 f83e
000000b0: 13fd 853f 48b9 ae3f fc68 953f 43e6 68bf
000000c0: fcbd e13e 8078 0e3f 3807 b5be df7c a03f
000000d0: 6976 a0bf 3e4e 4a3f 4c90 0bbf 9ff9 c23e
000000e0: 6ca5 5e3f 8afb 263f ee4b fb3e 42ff 2cbe
000000f0: 132d 55be 5428 543e 36c8 56bf 167d 013e

l2.bias f4 [8]
0.266121 0.18905134 -0.09742281 0.24444482 0.5060412 0.38262144 0.107880026 0.04191395
00000000: 0341 883e ad96 413e 9c85 c7bd be4f 7a3e
00000010: eb8b 013f f5e6 c33e 34f0 dc3d f6ad 2b3d

l3.weight f4 [8, 8]
-1.9307252 -0.58530194 0.0847013 -1.264655 0.9122604 0.5224596 0.28324792 -0.98628
-0.05983565 0.31735346 -0.027795047 0.6618587 -1.2790241 -0.793771 -0.7799509 0.5719599
-1.2398292 -1.0390533 -0.07565284 0.7672532 -0.71923 0.46224424 -1.0731392 -0.3226991
0.19227067 -1.0217764 -0.24058503 0.30490667 0.9139389 -0.95865947 -1.2886193 -0.63910204
0.4786681 0.1621122 -0.256323 -1.6893299 0.6500523 -0.6336626 0.4721703 -1.3175206
-0.2647369 0.65461946 0.10129121 -1.2857285 -0.8416792 0.82740134 -0.33277133 -0.77554363
0.19587052 -1.2544675 0.08554003 0.007816774 -0.7705632 -0.32936466 0.87125874 0.5608139
0.53402424 0.443136 0.1725373 -0.26363724 -0.18911505 -1.5111178 0.40832126 0.10045717
00000000: 0122 f7bf 59d6 15bf e077 ad3d 37e0 a1bf
00000010: e689 693f eabf 053f df05 913e d97c 7cbf
00000020: 3a16 75bd 277c a23e 70b2 e3bc 926f 293f
00000030: 10b7 a3bf 9434 4bbf ddaa 47bf f76b 123f
00000040: b9b2 9ebf b3ff 84bf e0ef 9abd b56a 443f
00000050: 751f 38bf 47ab ec3e a05c 89bf d138 a5be
00000060: 9ae2 443e 92c9 82bf ec5b 76be ba1c 9c3e
00000070: e6f7 693f b56a 75bf 7af1 a4bf 319c 23bf
00000080: fc13 f53e be00 263e c53c 83be f63b d8bf
00000090: d469 263f b637 22bf 4ec0 f13e 84a4 a8bf
000000a0: 988b 87be 2495 273f c471 cf3d c092 a4bf
000000b0: 4a78 57bf 93d0 533f 0161 aabe 078a 46bf
000000c0: 4892 483e 6492 a0bf 9c2f af3d ed11 003c
000000d0: a143 45bf 7ca2 a8be d00a 5f3f 8091 0f3f
000000e0: d0b5 083f b9e2 e23e 9ead 303e 76fb 86be
000000f0: 60a7 41be 4f6c c1bf 7c0f d13e 7dbc cd3d

l3.bias f4 [8]
-0.13124642 -0.1718572 -0.08169162 -0.08842861 0.14637844 0.0720422 -0.3289978 -0.44728786
00000000: 7665 06be 55fb 2fbe f04d a7bd 0f1a b5bd
00000010: 3be4 153e dc8a 933d 6672 a8be ea02 e5be
